model.pt (torch, 32415 bytes, 2 tensors)

fc1.weight f4 [10, 784]
000000 c4 8b cd bb 06 3a cc bb 94 27 b7 bb 3e 0e a9 bb
       -0.006272765 -0.006232503 -0.005589435 -0.0051591685
000010 18 26 c8 bb cb 95 2c bc 52 1e b9 bc 30 b6 02 ba
       -0.0061080568 -0.01053376 -0.022597466 -0.00049862545
000020 29 ac 8b 3d 94 a9 76 3d 99 70 8f bd 30 00 f6 bd
       0.06819946 0.060220316 -0.07003898 -0.120117545
000030 1f e4 fe bd 95 91 78 be f2 62 86 be 35 96 5f be
       -0.124458544 -0.24274285 -0.26247364 -0.21834643
000040 6f 9b d1 bd 98 20 54 bd ef de a0 3d c6 7e db 3d
       -0.10234725 -0.051788896 0.07855021 0.107175395
000050 68 38 8d 3d 96 43 e7 bc 49 6e dc bc 79 aa 77 bc
       0.06895524 -0.02823047 -0.026908057 -0.015116327
000060 89 83 b6 bb 12 b0 c4 bb 31 23 c8 bb 26 cb cd bb
       -0.0055698794 -0.0060024345 -0.006107711 -0.0062803207
000070 d3 cd c3 bb 90 87 d5 bb 61 93 88 bb f5 19 19 bc
       -0.005975464 -0.0065164044 -0.0041679596 -0.009344568
000080 bf e4 2c bc 45 c0 c0 3b c4 c1 d4 b9 d6 14 4a 3e
       -0.010552584 0.0058822953 -0.00040580158 0.19734511
000090 05 e1 35 3e c4 78 9f bc 9c 80 24 bc 03 56 50 3d
       0.1776162 -0.019466765 -0.0100404285 0.050863277
0000a0 f6 4c 6b 3c 87 05 e7 bc 07 e6 5f bd 89 30 78 3d
       0.014361611 -0.028200878 -0.05466273 0.06059316
0000b0 82 97 b9 3d e0 8f a8 3d 07 b2 dc 3d 8f 15 2f 3e
       0.09062101 0.08230567 0.107761435 0.17098068
0000c0 28 e1 9a 3e 2c ba ea 3d e4 8d c8 3c c2 b4 a9 ba
       0.30249906 0.11461291 0.024481721 -0.0012947547
0000d0 51 2a 8f bb 38 23 db bb 23 7c c3 bb 27 44 b3 bb
       -0.004369058 -0.006687548 -0.005965726 -0.005470771
0000e0 e3 58 d3 bb a2 f8 09 bc ad 31 44 bc b3 9c 84 bb
       -0.006449805 -0.008421095 -0.011974734 -0.0040470003
0000f0 ff c9 c7 3c 56 24 94 3d 89 da 11 3e bf b0 08 3e
       0.024388311 0.07233493 0.14243521 0.13348673
000100 5a 68 31 3d 48 dd cd 3c 88 59 1e bb 36 55 2d 3c
       0.043312408 0.02512993 -0.0024162252 0.010579398
000110 5b 9a d4 3d da 41 92 3d 3b d8 70 3d f2 33 0b 3e
       0.103810035 0.071414664 0.058799963 0.13594034
000120 c7 3a c5 3c 1a e8 03 3d 56 b8 b8 bb ed d2 51 3d
       0.024075879 0.03220377 -0.005637209 0.051226545
000130 82 02 10 3e 08 81 82 3e b6 1d 31 3e 44 8c 6c 3d
       0.14063457 0.25489068 0.1729649 0.057750955
000140 8b 52 c4 3c 19 9e 30 bc 8d 07 6e bc 38 bd f5 bb
       0.02396514 -0.010779881 -0.014528167 -0.0074993633
000150 46 b1 f6 bb 70 ac 09 bc 09 3f 00 bc 3e 74 be 3c
       -0.007528457 -0.008402929 -0.007827529 0.023248788
000160 e7 6c 91 3d 05 4b 2d 3e 7c b6 3c 3e a2 cd ba bc
       0.071008496 0.16923149 0.18428987 -0.022803131
000170 9f 11 6b 3d 01 11 98 3d 41 60 95 bd 26 f6 17 be
       0.05738985 0.07425118 -0.072937496 -0.14839992
000180 71 ee 99 3c d5 ea 8c bd bd aa bf bd 85 a9 0a bd
       0.018790456 -0.06880728 -0.093587376 -0.033853073
000190 d8 fc 9b bd 4d 40 62 bd 33 6d 54 3c 6a 47 c1 3d
       -0.076165855 -0.055237103 0.012965488 0.09437449
0001a0 45 0a d9 3c 11 46 4e 3e ad 8e 7c 3e 67 cc 08 3e
       0.026494155 0.20143916 0.24663801 0.13359223
0001b0 bb 95 62 3d 4b ba ac 3b ee 6b a7 bc af 35 03 bc
       0.055318575 0.0052712313 -0.020437207 -0.008008405
0001c0 38 b9 25 bc ad 7c 47 bc 5a 6e 29 bb c6 f4 46 3d
       -0.01011496 -0.012175721 -0.0025853128 0.048573278
0001d0 23 fe 08 3e 2f 87 63 3e 0c 48 3a 3e be 54 6d bd
       0.13378195 0.22219537 0.18191546 -0.057942145
0001e0 d3 2f 4a 3d a7 ad 9d 3d 0e ae 56 bd d8 eb 28 be
       0.049362015 0.07699137 -0.052412085 -0.16496217
0001f0 1e a5 ba 3c 08 df 71 3d d4 2d e9 bc 40 cb 44 bb
       0.022783812 0.05905059 -0.028464235 -0.0030028373
000200 fb cc f1 bd f6 c1 d3 bd 3f 55 2a 3d 71 22 d5 3d
       -0.11806675 -0.103397295 0.041585203 0.1040696
000210 cd 6d 07 3d 42 c5 ed 3d 45 4a 93 3e 6c b3 38 3e
       0.0330637 0.116098896 0.287676 0.18037194
000220 63 da b8 3d 48 2d d0 3c d6 ce d1 bc 36 e4 0a bc
       0.09026029 0.025412217 -0.025611322 -0.008477261
000230 08 e2 17 bc 70 c3 12 bc a6 d6 d4 3c 33 f3 8d 3d
       -0.009270199 -0.008957729 0.025981259 0.06931152
000240 7e fe 4b 3e 11 b6 88 3e 20 75 ec 3d 07 cd db bd
       0.199213 0.26701406 0.11545777 -0.10732465
000250 52 b1 aa 3c 0b ee 63 3c 9c 9f 90 bd 83 81 f0 bd
       0.020836506 0.013911734 -0.07061693 -0.117434524
000260 45 ef 8b bd d4 88 87 3d 39 0a 9f bb 43 78 82 bd
       -0.068327464 0.06617895 -0.0048535136 -0.06370594
000270 09 19 03 be f2 66 d6 ba 16 28 30 3d 04 e1 f2 3d
       -0.12802519 -0.0016357584 0.04300698 0.118593246
000280 20 b2 52 3c 31 69 1c 3d e8 f3 7e 3e 45 c4 41 3e
       0.012859851 0.038186256 0.2489773 0.18922527
000290 c2 91 f9 3d e7 5d 06 3d 36 f5 81 bc 4a ce 0d bc
       0.12186004 0.032804396 -0.015863996 -0.00865514
0002a0 44 64 1f bc b9 c2 df 3b 4e 19 50 3d f8 5f d7 3d
       -0.009728495 0.0068286327 0.050805382 0.105163515
0002b0 fb e1 55 3e 01 1e 98 3e 89 36 df 3d 95 d0 de bc
       0.20886986 0.2971039 0.10899074 -0.027199069
0002c0 26 ce 47 3e 80 a8 01 3c d3 31 c2 bc d6 56 e9 3c
       0.19512233 0.007913709 -0.023705399 0.02848379
0002d0 e4 1a 99 bd 98 f9 25 3d 66 35 59 bc 63 96 22 3b
       -0.07475832 0.040521234 -0.01325736 0.0024808876
0002e0 ce 21 2f bd da 8d cd bc df 8e 8a 3d 87 16 21 3e
       -0.042756848 -0.025092054 0.06765532 0.1573125
0002f0 78 f6 6d 3d 2b a8 a3 3c 76 97 76 3e da 48 65 3e
       0.05809638 0.01997765 0.24081215 0.22391072
000300 01 9d 13 3e a6 59 6f 3d 39 1b 53 bb 06 c7 1a bc
       0.14415361 0.058435105 -0.003221227 -0.009446865
000310 81 83 0e bc a1 23 b0 3c d2 03 97 3d fa 42 0b 3e
       -0.008698345 0.021501364 0.073737755 0.13599768
000320 a8 fe 5f 3e 0c b5 9a 3e d7 16 e2 3d 52 4b 97 3d
       0.21874487 0.30216253 0.110395126 0.07387413
000330 ec 9a a4 3e 15 fb 32 3c 55 82 2a bd a0 2d 75 3d
       0.32149446 0.01092412 -0.0416282 0.059857965
000340 88 6e 49 3c c6 9a 08 3d 50 4a de bc 4f ea 87 bc
       0.012294419 0.03335073 -0.027135044 -0.01659122
000350 6b 3c 32 3a 7b d7 c1 3c b1 3e 57 3b a7 5a 66 3e
       0.0006799164 0.02366232 0.0032843763 0.22495519
000360 65 c6 dc 3d ba de ac bc 86 b2 3a 3e 47 9a 72 3e
       0.10780028 -0.021102298 0.18232164 0.23691665
000370 3c a5 1a 3e fe f0 7a 3d 3e 3e 05 3c 79 2f 37 bb
       0.15102094 0.061264984 0.0081325155 -0.002795188
000380 32 67 69 bc bb 6f a6 3c 7e 3f aa 3d fa 4e 14 3e
       -0.014245795 0.02031695 0.083128914 0.14483252
000390 38 1b 67 3e d6 3b 96 3e 69 bc dc 3d 2f 5f 2a 3e
       0.22568977 0.29342526 0.10778124 0.16637872
0003a0 d5 ad bd 3e f4 1d b6 3d ea ee 8a bc d5 65 cc 3c
       0.37046686 0.08892432 -0.016959626 0.024950901
0003b0 36 d6 35 3d 91 a4 a0 3b 55 89 63 3b 4e 29 db 3c
       0.04439374 0.0049024303 0.0034719307 0.026753094
0003c0 b0 76 79 3d 28 71 96 3d b5 ff 40 3d 65 8f 85 3e
       0.060904205 0.073458016 0.04711886 0.26085964
0003d0 a2 6f d7 3d 3e 7d 81 bc e0 e1 1b 3e a5 67 56 3e
       0.10519339 -0.01580679 0.15222883 0.20937975
0003e0 9a a1 12 3e a7 e2 7c 3d 39 35 77 bb f8 d1 96 bb
       0.14319459 0.06173959 -0.0037720932 -0.004602667
0003f0 9e 6d 90 bc 57 71 a0 3b 74 7d 8d 3d e9 c1 14 3e
       -0.017630395 0.0048963237 0.06908694 0.14527096

fc1.bias f4 [10]
000000 14 af cc 3b 82 ee 65 3c 37 b4 bf 3b a8 e7 92 bc
       0.006246457 0.0140339155 0.0058503407 -0.017932728
000010 fe c5 e1 bc 3f 69 69 bd fa ee 11 bc 8b 4a 57 bd
       -0.02756023 -0.056985136 -0.008907074 -0.052561324
000020 a7 e8 0e 3e aa 37 e5 ba
       0.13955937 -0.0017487903
